odh-rhoai/img-triton/card.fraud.detection.onnx (onnx, 13228 bytes, 11 tensors)

sequential/dense_3/MatMul/ReadVariableOp:0 f4 [32, 1]
00000000: 310a d63e 1247 76bf 4141 08bf a63b 863e
00000010: 38bb 9d3e a07e 74bf f733 813e 6c03 3bbf
00000020: 40bc 863e 2da9 0abf 5f51 26bf 1783 37bf
00000030: 6f41 d83e 4fbf 44bf 1f71 043f 9b39 7e3e
00000040: 13e5 8d3e 42d5 26bf f45d 45bf 6077 24bf
00000050: a182 6dbf c105 b73e 6225 1bbf 4973 e93e
00000060: a0c4 ca3e 44cb dc3e 73ea 643e 48a8 fdbe
00000070: 89d8 8b3e 7131 1fbf 9b9b db3e d4f9 b1be
0.4180465 -0.96202195 -0.5322457 0.26217383 0.308069 -0.95505714 0.2523496 -0.73052096
0.26315498 -0.5416439 -0.6496791 -0.716844 0.42237422 -0.76854414 0.5173511 0.24826662
0.27713832 -0.65169156 -0.77096486 -0.6424465 -0.9277745 0.35746577 -0.60603917 0.45595768
0.39603138 0.4312383 0.2235506 -0.4954245 0.2731364 -0.62184817 0.42892155 -0.34760916

sequential/dense_2/MatMul/ReadVariableOp:0 f4 [32, 32]
00000000: 2ac6 0bbe c25c 1cbe fe7a 89bd 5e97 d03c
00000010: 9465 723e dc6c c6bd a974 863d 13ea 09be
00000020: 1c4b 723d 258c 18be b098 d0be 2ade 0cbf
00000030: 2787 40be 49f6 ed3d c841 4fbe 7389 313e
00000040: ac19 7d3e af26 b3be 66e2 39be 949a 48be
00000050: e355 82be 6926 e63d 2562 07bf 38f9 2f3e
00000060: 86d6 47be d741 9d3d 33ad af3e 3fe1 063d
00000070: afc3 dc3d 97f0 d6be 0db3 383c 896b 413d
00000080: f7b0 dabd ee1b f8bd 4451 333f 47b4 36be
00000090: 19ff afbc 9ea8 1b3f ff47 3abe 11f5 a13f
000000a0: e0d3 03bf 5a4f 0f3e 08a7 93be 4293 803e
000000b0: b5d7 d83e a56d 923f 63a0 2b3e 8fac eabd
000000c0: 9099 283e 6bcd 233f 7a81 883e c704 1cbe
000000d0: 5295 c23e f55a 5bbe ae29 6e3b 35fd 19be
000000e0: 8b35 9e3d c09c e2bd 3e79 ecbe 9b0d 843f
000000f0: e056 3dbe 6072 9d3c b6ac 4dbe 2cf2 1a3f
00000100: 8fa7 a13e 635e 4cbe 27a4 a63c 54f8 d93e
00000110: 2228 443c 3aa5 54bd 2888 c13d fe85 0dbd
00000120: d6bc 5d3d 7dad 12bf 9e3e f1be cf44 96be
00000130: fb9c a83e 6a1d b73c 139b f83d 065b f23e
00000140: 0538 7bbe 1f0d 27be 7f9e b3be a009 f0be
00000150: 1316 e3bc 683f cfbd b12c 10bf 4f9a 2e3d
00000160: 3d60 1abe 17e4 d53d d7d6 013e 1174 483e
00000170: 4213 1e3e e2f6 c1be 8a1e 81bd a9b1 813e
00000180: 8821 72bf 09c2 adbd 996a 423e 48a7 6abe
00000190: b878 f5be 1713 2dbf deda 45bf 9a30 d03e
000001a0: ef17 9dbf 1a28 763e cfa8 1bbd d038 c83d
000001b0: a5e8 27bf fbe9 1c3e 8bab 2bbf a617 94bd
000001c0: 0184 5cbf 4f7c 213f e421 90be 128f 31be
000001d0: 3451 903e 37bf 7ebd 43d2 033e 0304 97bf
000001e0: 9e77 81be b534 b3be 9b41 ffbd c957 073f
000001f0: 5547 17bf 27b4 c1be 8938 6ebf 420c 0b3f
00000200: 7503 a1bd 8e40 3f3d d7a2 b8bd c941 533b
00000210: 801a 32be 5280 65be cb1d 4f3d 9646 aebe
00000220: 5131 0dbe 2f36 f43d 3421 66be 2d82 f3be
00000230: 8428 c73c ec85 19be 93b9 193e 2dea 97bd
00000240: 4f08 a1bd c1e1 78be 942b 5e3c a618 cbbc
00000250: 92f0 61be 23a2 263d 227a 0d3c 5b0b 843d
00000260: 9f37 8c3d fbc5 fe3d 686e 283e b730 43be
00000270: 74c3 2f3b 13ca 82bd fabc 01be 1d48 1cbf
00000280: 48ec 9bbd 314b 013d 5935 d03d e597 e43e
00000290: 946b 9c3c d384 1f3e 5e4a 5cbe 5cfd 6fbd
000002a0: bc35 c93c 2cb7 a8be de06 16bf 020a 95be
000002b0: a6d8 ba3e d007 043e 467b 073e 93ff 3a3f
000002c0: 4dbc a33d 6308 07be 42a0 39be b033 ccbe
000002d0: f1fb 423d e02b 6b3e 686b dbbe 8e9b 0d3e
000002e0: f954 dc3e ce49 cfbd e627 593e 357e 58bc
000002f0: 9af8 a8bd d416 abbe 4b70 683d 1428 8fbd
00000300: a666 283e 6aee 153d 8d53 b03d 02a9 133f
00000310: 823e 2e3e c0e0 b13c 7187 fa3d 0776 253e
00000320: fab4 e5bd 45c5 2ebf e744 e2be 7dea 2cbe
00000330: 144f 043e 7cb1 e53d 645a 333e 46a5 d93e
00000340: 51b0 32bd fd75 2d3e 02a3 a4be 8a32 30bf
00000350: 471f fc3d 71cc 81bd f40a 42bf db48 513e
00000360: fdc2 a03e 2ae8 adbd d55e 943e eee9 d9bd
00000370: fd12 233e 0b3f 91be 69fa f23d 5d08 053e
00000380: 178e 3cbe ba42 c6be c1f5 e33c de3d 823d
00000390: 2a18 37be 41c7 94be e75f 25be 0298 83bd
000003a0: 95fe 0e3e 1818 d4be ddae 423e db66 d03d
000003b0: 51f4 1fbe bac1 2dbe c6e4 0d3e ec99 b13c
000003c0: 28ad 98bd 56d4 00be a3de 02be 69a8 2abe
000003d0: 60e7 bdbe 7ba4 4fbe 4c87 afbd 784c 9e3d
000003e0: 987f fb3c 20d8 603e fa6a 6d3d 7e73 aebc
000003f0: b8a0 173c e2b1 043b 765c fb3d 6c2d 9ebd
-0.13649812 -0.1526976 -0.06712912 0.025462802 0.23671561 -0.09688732 0.0656522 -0.13468198
0.05915366 -0.14897211 -0.4074149 -0.55026495 -0.18801557 0.11619241 -0.20239937 0.17337589
0.24716824 -0.3499045 -0.1815277 -0.19590217 -0.2545615 0.11237795 -0.5288413 0.17184913
-0.19515428 0.076785736 0.34311828 0.032929655 0.10779511 -0.4198043 0.011273158 0.047221694
-0.106782846 -0.12114702 0.70045877 -0.17842208 -0.021483945 0.60804164 -0.18191527 1.2652913
-0.5149517 0.13995114 -0.28838372 0.2511235 0.4235207 1.1439711 0.16760401 -0.11458694
0.1646483 0.6398532 0.26661283 -0.15236197 0.38004547 -0.21421416 0.003634076 -0.15037997
0.07725056 -0.11065054 -0.4618625 1.0316652 -0.18490171 0.019219577 -0.20085415 0.60525775
0.3157315 -0.1995788 0.020341946 0.42572272 0.011972459 -0.051915385 0.09449798 -0.034551613
0.054135166 -0.5729597 -0.47118086 -0.29349372 0.32932267 0.022352893 0.12138953 0.4733507
-0.24533089 -0.16313599 -0.3508186 -0.46882343 -0.027720487 -0.10119516 -0.56318194 0.04262763
-0.15075774 0.10443895 0.12679611 0.19575526 0.15437034 -0.3788367 -0.06304653 0.25330856
-0.94582415 -0.08484275 0.18985976 -0.22915375 -0.47943664 -0.67607254 -0.7728709 0.4066208
-1.2272929 0.24038735 -0.038002785 0.09776461 -0.6558936 0.15323631 -0.6705863 -0.07231073
-0.8613892 0.63080305 -0.28150856 -0.17339733 0.28186953 -0.062194075 0.12873177 -1.1798099
-0.25286573 -0.3500115 -0.12463685 0.52868325 -0.5909322 -0.37832758 -0.93055016 0.5431558
-0.078619875 0.046692424 -0.09015434 0.0032235256 -0.17392921 -0.22412232 0.050565522 -0.34038228
-0.13788344 0.11924397 -0.22473603 -0.47560254 0.024311312 -0.14992493 0.15012197 -0.07417712
-0.07862913 -0.24304868 0.0135601945 -0.024792027 -0.22064427 0.04068197 0.008635076 0.064474784
0.068465464 0.124401055 0.16448367 -0.19061552 0.002681938 -0.06386199 -0.12669745 -0.61047536
-0.076134264 0.03156585 0.10166425 0.44647136 0.019094266 0.15578012 -0.21512744 -0.05859123
0.024561755 -0.3295225 -0.5860423 -0.29109198 0.36493415 0.12893605 0.13230619 0.73046225
0.079949 -0.13186793 -0.1812754 -0.39883184 0.04760355 0.22965956 -0.42855382 0.1382887
0.4303358 -0.10121499 0.21206626 -0.013213684 -0.08250542 -0.33415854 0.056747716 -0.06990066
0.16445407 0.036604322 0.08609686 0.5767976 0.17016032 0.021713614 0.12232865 0.16158305
-0.11216159 -0.6826976 -0.44193193 -0.16886325 0.12920791 0.11215493 0.1751495 0.42508906
-0.04362518 0.1693954 -0.32155615 -0.68827116 0.12310653 -0.06337822 -0.75797963 0.20437948
0.31398764 -0.084915474 0.289786 -0.10640322 0.15925212 -0.2836841 0.11864168 0.12991472
-0.18413578 -0.38722783 0.027827146 0.063594565 -0.17880312 -0.2905827 -0.16149865 -0.064254776
0.13964303 -0.41424632 0.19012018 0.10175868 -0.15620543 -0.16968432 0.13856801 0.021679841
-0.07454902 -0.12581 -0.12780242 -0.16665806 -0.37090588 -0.20277588 -0.08570728 0.07729429
0.03070049 0.21957445 0.05796335 -0.021295305 0.009254627 0.0020247628 0.12273495 -0.07723507

sequential/dense_2/BiasAdd/ReadVariableOp:0 f4 [32]
00000000: 2fee b8ba da7e 5bbb 4e71 0439 cdf7 92b8
00000010: 994e b6bb bb20 0b3c fe01 beb9 c784 463c
00000020: bffb d0ba b275 a83b df22 8dba 1ee9 333c
00000030: 0caa 5c35 ca50 b63b e3fb 9f3a e97d cfba
00000040: 9a28 97ba 0328 dbba 71df f03b d4ee a93b
00000050: b345 3ebc 83cc 9b3b d0bb 073b 7c91 893a
00000060: dc5d baba cbcd 13bb 9c46 863a fee2 cc3b
00000070: 9953 aaba c20d c53b 3835 233c cad8 fcba
-0.001410907 -0.0033492357 0.0001263071 -7.007979e-05 -0.005563569 0.00849169 -0.00036241108 0.0121166175
-0.0015944167 0.0051409835 -0.0010767839 0.010980872 8.220384e-07 0.00556383 0.0012205805 -0.0015830371
-0.0011532486 -0.0016720298 0.007350855 0.0051859412 -0.011613297 0.0047546043 0.002071131 0.0010495628
-0.0014218646 -0.0022553082 0.0010244432 0.0062526455 -0.0012994885 0.006013603 0.009961419 -0.0019290682

sequential/dense_1/MatMul/ReadVariableOp:0 f4 [32, 32]
00000000: 3137 36be 2c95 c3be 75b2 3e3e ddf9 01bf
00000010: ed9d 61be ddb3 44bd f8f7 9a3e 148d ad3d
00000020: 9a04 3cbf 9833 64bf e529 5c3d 0b94 16be
00000030: 7787 c4be da41 373e e6ee bdbd 08a3 013c
00000040: d244 6bbe 0657 33bf d8ba f0bd a71c 7f3e
00000050: 04eb 613e fd5e 113f 2d55 603e 877c 26bd
00000060: 69c2 1cbe e58b 093e 3434 d3be 33ec f5be
00000070: acaa c33d b1d2 603e 2264 803d 6708 54bf
00000080: 7c87 25be 3480 0cbe 230e 4d3e 040f bdbd
00000090: d690 2a3f 16b1 fb3c 122c fcbd 5064 01be
000000a0: cbc6 dabc 1ed5 7dbe 4d62 da3e afff 9a3d
000000b0: 1c3e cbbe 9f12 14bf 35eb 913c 0680 6c3e
000000c0: cd65 4a3c 4b31 e6bb f3af 0bbf 9506 023e
000000d0: 33e7 1d3e 798b 0b3e 135a 0a3e 96f5 903d
000000e0: 0e1e 093f bf80 2fbd 0bed 5c3e 0840 2bbd
000000f0: 7adb 7a3d bd0b 00bf 8b9f 3f3d 0c3c 50be
00000100: d021 20bf 9f8e 62bd 649d 72be 0e1e 01be
00000110: e73d 92bd 691c 84be 51de 6bbe ba67 9fbf
00000120: fe5c 09bd d94d 1bbe 29e3 d2be 2675 68bf
00000130: e377 433e debc 843e 9e33 4b3f 548c dbbf
00000140: 146c 8dbb a81d 26bd 2f0b 00bf 47be 943c
00000150: c77b 41bf b1f8 b33e 9256 03bf 0863 26be
00000160: 041a febe ad8f cdbe de7b 723e 9008 85be
00000170: 3b30 9abf 455a 753d ad52 21be d322 3ebe
00000180: f95c d63d 59bf 0fbc 7a6c 2ebf 2fe8 47bd
00000190: 332e df3d 0cfe 07bf 4b02 32bf c3e9 ccbc
000001a0: 612d 843d ca4a aebb 0623 9bbe 15f5 39be
000001b0: c16e b13d 13cd 2abd 0bc9 e03d 22a0 7f3d
000001c0: 3508 933e ce19 dbbd e0f4 2f3c b393 12bf
000001d0: aab5 10bf 0da6 fdbe 2a65 9bbe 9f88 3dbf
000001e0: c4eb b03e f6bf 50bf 468c 2a3e 32a4 a1bd
000001f0: 67fc 1dbd b959 32bd 593a 7b3e bd80 ecbd
00000200: 390a 613d 56d0 0cbf 74a4 03be cf32 bcbe
00000210: 7a9c 2bbe 50f2 ba3e b715 de3d 6afc 873e
00000220: 3717 bcbd ee3b 64be 5b47 7b3d 2fe0 88bd
00000230: f032 07bf b976 2fbe ba98 69bd 013b e8ba
00000240: 50ea 3c3e ba60 efbe 3b16 6cbf f5fa 2a3e
00000250: a4a1 5fbe 2767 333e 67d6 e43e 63f9 843c
00000260: ffc6 4e3d 242c e6bd 0c47 543d 43e8 3dbe
00000270: d657 c13d e6d0 8dbc c941 97bd c4d3 b8bd
00000280: 3740 13be d36b 13bf f4e8 6d3c ef7f a6be
00000290: 4679 9f3e 8858 d4bd 9260 a33d aa5d 49be
000002a0: e1a0 c4be 3647 39bf 329f 123e 069d 97be
000002b0: db91 1c3c e18a 083e ceb9 c2be e609 523d
000002c0: 54af e4bb 2bed f4be 5577 a5bd 26ae 903e
000002d0: 55c3 f43c b7cb 823d d2d6 edbd 90b3 133e
000002e0: e0b6 403e 9e37 6a3d 006f 02be bfd1 8dbc
000002f0: 55c6 653e ea4b 973e f1b5 04bf 0729 f9be
00000300: 4db7 c1be 8e6a 74ba 2a94 37bf 431b 8abd
00000310: d290 4fbc da7b 6bbf 2cc8 11bf 1085 b7be
00000320: ded7 f8bc ea8e a3bc a689 66bf 1a73 5bbf
00000330: 675f 12be 6d99 87be f835 583e 1fa6 4bbd
00000340: ff3c 70be 5551 72bd 7940 0a3d 502c 31be
00000350: 2c41 26bf 803b 85be aae0 c5be 40fe 7cbe
00000360: 80c9 0d3e 05be 1fbf 1554 cdbd 18e6 a13d
00000370: 87b7 87bd cf96 b73e 5741 15be dbd0 1fbe
00000380: 321f b53d b324 223d 3aa0 c3be 221c bd3b
00000390: a78d 0e3e 6838 31bf a21c c1be 6175 98be
000003a0: ea56 173d 96ef 63bd a600 c9be be41 a7be
000003b0: 8186 77bd 2d65 d33e 6a9e 823e 0290 22be
000003c0: 15a4 02bd ea43 003e b76a d13d 468d ccbe
000003d0: f4d3 94be 1142 cfbe 7206 a73d ab3e 13bf
000003e0: 575c 36bd 6b90 b7be 2400 863c 57aa 2ebf
000003f0: d423 97bc 3d56 7fbc 5879 1dbe 04b7 303e
-0.17794491 -0.38199747 0.18622763 -0.50771886 -0.220329 -0.048023093 0.3026731 0.08474174
-0.7344452 -0.89141226 0.05375089 -0.14704911 -0.383846 0.17896214 -0.09274082 0.007912405
-0.22975472 -0.7005466 -0.117543876 0.24913274 0.22062308 0.56785566 0.21907492 -0.040646102
-0.15308537 0.13432272 -0.41250765 -0.48031768 0.095540375 0.21955372 0.06269099 -0.8282532
-0.16164964 -0.1372078 0.20024924 -0.0923138 0.6662725 0.03072409 -0.12313093 -0.12635922
-0.02670612 -0.24788329 0.42653123 0.07568299 -0.39695823 -0.57840914 0.01781235 0.23095712
0.012353373 -0.007024919 -0.5456535 0.12697823 0.15420227 0.13627423 0.13510923 0.07078092
0.53561485 -0.04284739 0.215748 -0.04180911 0.061244465 -0.5001791 0.04678301 -0.20335406
-0.62551594 -0.055311795 -0.23692852 -0.12609121 -0.07140713 -0.25802925 -0.23034026 -1.245353
-0.03353595 -0.15166415 -0.41188934 -0.90803754 0.19088702 0.25925344 0.79375637 -1.71522
-0.0043158624 -0.040555626 -0.50017065 0.018157138 -0.75579494 0.35150674 -0.5130397 -0.16248715
-0.49629223 -0.40148678 0.23680064 -0.25983095 -1.2045969 0.05990054 -0.15754195 -0.18567972
0.10466952 -0.008773648 -0.6813427 -0.048805412 0.10897484 -0.5312202 -0.6953475 -0.02501381
0.06453968 -0.005318974 -0.30300158 -0.18159898 0.08663703 -0.04169948 0.10975846 0.062408574
0.287172 -0.10698281 0.010739535 -0.5725662 -0.565272 -0.4954075 -0.3035062 -0.7403659
0.34554875 -0.8154291 0.16655073 -0.07892646 -0.038570788 -0.043542597 0.24533977 -0.115479924
0.05494139 -0.55005395 -0.12855703 -0.36757514 -0.1675891 0.36512995 0.108439855 0.26559764
-0.091841154 -0.22288486 0.061347347 -0.066833846 -0.528121 -0.17135133 -0.057030417 -0.001771778
0.18448758 -0.46753484 -0.9222142 0.16697295 -0.21839005 0.17519818 0.44694826 0.016232198
0.050482746 -0.11238888 0.051825568 -0.18545632 0.094405815 -0.017311525 -0.073855944 -0.09024766
-0.14379965 -0.575864 0.014520872 -0.3251948 0.31147212 -0.103684485 0.07977404 -0.19664636
-0.3840399 -0.72374284 0.1431854 -0.29611987 0.009556259 0.13334228 -0.38032383 0.05127897
-0.0069789086 -0.47837195 -0.080794014 0.28257865 0.029878298 0.06386512 -0.11613239 0.14423966
0.18819761 0.057181947 -0.12737656 -0.017311929 0.22438939 0.29550105 -0.5184012 -0.48664114
-0.3783516 -0.0009323739 -0.71710455 -0.06743481 -0.012668805 -0.9198586 -0.56946063 -0.35843706
-0.030376371 -0.019965608 -0.90053785 -0.85722506 -0.14294206 -0.26484242 0.21114337 -0.049718972
-0.23460768 -0.059159596 0.033752892 -0.1730206 -0.64943194 -0.26021957 -0.38647968 -0.24706364
0.13846397 -0.6239932 -0.10025803 0.07905215 -0.06626802 0.35857245 -0.14575706 -0.15607016
0.08843841 0.03958578 -0.3820818 0.005771176 0.13921224 -0.69226694 -0.37717158 -0.29777053
0.036948122 -0.05564841 -0.39258307 -0.32667345 -0.060431007 0.41288128 0.25511485 -0.15875247
-0.031894762 0.12525907 0.10225432 -0.39951533 -0.29067957 -0.40480092 0.08155526 -0.575175
-0.044521656 -0.3585237 0.016357489 -0.6822867 -0.018449701 -0.015584526 -0.1537832 0.17257315

sequential/dense_1/BiasAdd/ReadVariableOp:0 f4 [32]
00000000: 7410 bd3a 0882 473d 61d5 f73b 7a4a f13c
00000010: 6ec9 7bba d048 023c 7627 8bbb 2d6d 4cbc
00000020: 337b 5cbc bb1c 333d 4138 5dbc 51c6 2abc
00000030: 37b0 2dbb a987 6b3b 4c9b aa3b 1836 a63a
00000040: 545d f63b 1ca1 413a 8dac 06bc 254a bfba
00000050: 64bc 37bb 5c09 4abb 9dbd f23b b066 ebbb
00000060: bc1e 9c3b 235b 31bc 6fcb 353c 6408 a83c
00000070: 73dc 88bb b5be 853b 566b 17bc d34f 723b
0.0014424459 0.04870799 0.0075632785 0.029454459 -0.00096049055 0.00795193 -0.0042466475 -0.012477201
-0.013457107 0.04372857 -0.0135021815 -0.010423259 -0.0026502737 0.0035939014 0.005206501 0.0012680916
0.00751845 0.0007386373 -0.00821985 -0.001459424 -0.0028035874 -0.0030828333 0.0074078576 -0.007183872
0.004764406 -0.010824951 0.011095866 0.020511813 -0.00417667 0.004081572 -0.0092418995 0.0036973848

sequential/dense/MatMul/ReadVariableOp:0 f4 [7, 32]
00000000: c099 c73e 6d2c c63d 17ec b0be 5a23 a83d
00000010: b404 bd3e 3ac4 44bc 8341 563d 2793 c6be
00000020: 7df4 0b3c 9c9a 023e 3b8d 3a3e d00b c13d
00000030: c060 c9bc ad7b d33d 6bc8 a63c 68e2 e63e
00000040: d77d b0be 1918 b6be 260e 853c b42a d7be
00000050: c457 8a3e 6178 c23e 12ce 8bbb 844b 963e
00000060: 2aaa a43c ce29 cc3e ca77 103e 56fd 7e3d
00000070: a1cf dcbe ea0e 3f3e cc79 083e d3aa 923e
00000080: b48d 86bd 8f40 f43e d34e 88be 5044 1f3e
00000090: cd47 ad3e 4837 2bbc 2042 7d3d 5791 f2bc
000000a0: 32fb cdbc 1548 45be 30a4 743d 3850 263d
000000b0: 473d 9dbb 4ce0 a9be 5d70 c13d c384 ad3e
000000c0: 8202 bf3d 7e59 d9be 0a1c 953d c3d5 c1be
000000d0: 6a32 89be 6977 483e 9f70 bdbc 93c6 373e
000000e0: 2707 c23e dccb 29be 63fe 1cbe 22d6 4bbe
000000f0: db19 b8be 0709 503e 88e5 88be 4e2f 473e
00000100: 85cf 0abd d14d 393e c233 cebe 088d 00bd
00000110: 8d15 a43d 0c90 f73e 4074 e1be cd60 dc3d
00000120: 1890 2b3f 28ab 273d e8f4 df3e 12e1 043c
00000130: 18e4 113f 7e73 15bf d0e9 23bf eca1 023e
00000140: b32d b93c 6390 e13d a45f 11bf 3adb 753d
00000150: 3daf 9d3e 3002 c53e 29bf 183f b573 8e3e
00000160: 2a4f e73e 7cb4 37bd b203 e3be 6cd8 a33d
00000170: 56ad cebe 672d c4be 1d94 9bbe 79b7 bbbd
00000180: 221e 1bbe 139f 70bd 520c bb3b bdce 5d3e
00000190: 66d6 b73a 35d7 e7bb a306 a53d 2ec5 053e
000001a0: 3441 9f3b 9ade efbd 7ad1 aa3c 276f 69be
000001b0: f722 adbb fc13 e7bd d7bd 63bd 13ef e83b
000001c0: 8349 6e3e d543 e03e 24c1 69bc f13c 683e
000001d0: c6ef 23bd 7657 68bc af61 283b 4f68 453d
000001e0: a281 0eba 3742 eabd d12c 3fbe 7510 083e
000001f0: f178 61bc 0818 a7bd 4b6b debc 71b5 13bb
00000200: 8969 8abe a5c1 0e3d dc54 6dbc 2141 e03e
00000210: 17b9 6cbe 75f1 20bc 3992 f43e 3568 133e
00000220: 0b01 cbbc 399a 903e b335 7b3a 2878 86be
00000230: e02c bfba 1a8c 943e 1570 003f 7df9 02bd
00000240: 066b 043e f089 10be b3a0 5cbe 2d48 e33d
00000250: e98f 903b d8d9 383d ee61 c53b 7b28 0a3e
00000260: 4133 e53b 8b4c 7dbe cde9 aa3c b893 aa3e
00000270: 5f17 96bb d707 4cbd 1d9c 64bd e4e0 88be
00000280: 44a8 e5bc 485e d8be 3953 453e 052e 913e
00000290: bb9c 953b 040c 523d ecb4 493e 0402 013f
000002a0: 2685 243c 5a1b d73e 8f0a 42be 4748 99be
000002b0: c403 2bbe 3826 203c 6cf8 8b3e 07e7 603c
000002c0: 8091 89be 0cd5 503e 5e9f 933e 7119 bf3e
000002d0: 8822 8bbe 9d62 1c3e 0940 3fbe 0062 52be
000002e0: f373 9abe 7071 453d 34a8 163e 2b02 ca3e
000002f0: 4c2a 763e b0ef 813c c8cd debd 19e2 17be
00000300: e376 743d 83bf 843d 5308 c43e 3267 18bf
00000310: d4f7 123d a8d5 eabc 2bdd 00bf 9472 3cbf
00000320: f476 00bd 9440 0bbe 5ed6 da3d 1881 8b3e
00000330: f78e d3bc 2219 2dbd ac3b a63c 8f6e 313d
00000340: 7fa2 c4be c0a3 fabe 8b4c 26bf 1bb3 f1be
00000350: f628 373e c719 82be 8e74 07bd c7a1 09be
00000360: 7a9f 40bb 6e1f 343d ecfd 8dbe d4f5 1cbf
00000370: 71e4 ae3e 4572 1bbd 3840 0d3e 7824 483e
0.3898449 0.09676442 -0.34555122 0.08209868 0.3691765 -0.012009675 0.05230857 -0.38784143
0.008542177 0.12754291 0.18217938 0.09426081 -0.024582267 0.10326324 0.020359239 0.4509461
-0.34471008 -0.3556526 0.016242098 -0.42024767 0.27020085 0.37982467 -0.004266509 0.2935449
0.020100672 0.39875644 0.14108196 0.06225332 -0.43127158 0.18658033 0.13327712 0.28645954
-0.065699965 0.47705504 -0.26622638 0.15553403 0.33843842 -0.010450192 0.06183064 -0.029610319
-0.025144193 -0.19265778 0.059726894 0.040603846 -0.0047985646 -0.33178937 0.0944526 0.33890352
0.0932665 -0.4245109 0.07280739 -0.378584 -0.26796275 0.19576801 -0.023124991 0.17946844
0.37896082 -0.16581672 -0.15331416 -0.19905904 -0.35957226 0.20315944 -0.26737618 0.19451639
-0.033889312 0.18096091 -0.40273863 -0.031384498 0.08011923 0.48352087 -0.44034004 0.10760651
0.67016745 0.04093471 0.43741536 0.008110302 0.5698867 -0.5837935 -0.64028645 0.12757081
0.022604799 0.11013868 -0.5678656 0.060023524 0.3079776 0.3847823 0.5966669 0.27822652
0.45177585 -0.044849858 -0.44338757 0.080002636 -0.4036662 -0.3831589 -0.3038644 -0.09165854
-0.15148214 -0.058745455 0.005708256 0.21660896 0.0014025688 -0.007075215 0.080579065 0.130635
0.0048600677 -0.1171238 0.02085184 -0.22796308 -0.005283709 -0.112831086 -0.055600967 0.007108578
0.2327023 0.43801752 -0.01426724 0.22679497 -0.040023588 -0.014181009 0.002569299 0.04819518
-0.0005436187 -0.11438411 -0.1866944 0.13287528 -0.013761745 -0.081588805 -0.02715077 -0.0022538567
-0.27033642 0.034852643 -0.014485564 0.4379969 -0.23117481 -0.009823193 0.4776781 0.1439522
-0.02478077 0.28242663 0.0009582892 -0.26263547 -0.0014585517 0.2901314 0.50171024 -0.03197621
0.12931451 -0.14115119 -0.21545677 0.11097751 0.0044116867 0.045129627 0.006023637 0.13492005
0.0069946353 -0.2473623 0.020863438 0.33315825 -0.004580423 -0.049812164 -0.055812944 -0.26734078
-0.028034337 -0.4225943 0.19270028 0.28355423 0.004565803 0.05128099 0.19697922 0.503937
0.010041511 0.42013055 -0.1894934 -0.29937956 -0.16700655 0.009774737 0.27337968 0.013726956
-0.2686882 0.20393771 0.28832525 0.37324098 -0.27174783 0.15271993 -0.18676771 -0.20545197
-0.30166587 0.048203886 0.14712602 0.3945478 0.24039572 0.015861362 -0.108790934 -0.14832343
0.05968369 0.064818405 0.382876 -0.59532464 0.03588088 -0.028666332 -0.50337476 -0.7361233
-0.031363443 -0.13598853 0.106854185 0.27246928 -0.025825007 -0.042260297 0.020292126 0.043318328
-0.38405225 -0.48953056 -0.64960545 -0.4720696 0.17886719 -0.25410292 -0.03307014 -0.1344062
-0.002939193 0.043975286 -0.2773279 -0.61312604 0.34158662 -0.037950773 0.13794029 0.19545162

sequential/dense/BiasAdd/ReadVariableOp:0 f4 [32]
00000000: e931 0fbf dcc1 0fbf 7e51 e1bc b6d7 02bb
00000010: dc8f ecbe 9532 98be 7f5d 553e 0fa0 08bf
00000020: 23f8 d3be 3974 dfbe 55db b3be 4058 a1be
00000030: 5e9f d9be eb55 71be 7f5e 0dbd 89d7 9fbe
00000040: a38c dcbd 4c66 acbe e8ff 76be 1976 84be
00000050: 606e c4be 369b 3ebf 274d e6be 9ef8 2bbf
00000060: efaa b1be dc57 05bf 067e 81be bdf0 7abe
00000070: 1426 d03c b904 92be 9013 0a3e e039 19bf
-0.5593553 -0.5615518 -0.027504679 -0.0019965 -0.46203506 -0.2972609 0.20836447 -0.5336923
-0.4140025 -0.43643358 -0.35128275 -0.31512642 -0.425044 -0.23567931 -0.034513947 -0.31219128
-0.10769012 -0.33671796 -0.24121058 -0.2587135 -0.3836546 -0.74455583 -0.44980738 -0.67176235
-0.34700724 -0.5208719 -0.2529146 -0.24505897 0.025408782 -0.28519228 0.13484025 -0.59853935

sequential/batch_normalization_1/batchnorm/sub:0 f4 [32]
00000000: c2c2 1d3f cebc b93f 8ac0 d2bf 78b4 b6be
00000010: da05 563f a171 4f3e 4fad 5f3f 523f 03bf
00000020: 9892 943f 66ab a43f 13c9 a03f 0496 b93f
00000030: d8e7 3a3e f66c a6be a415 0d3e 74e5 cf3c
00000040: 8ac3 773f 1086 a03f 0531 b43f 9847 5b3f
00000050: 48cb f63e 0499 463f f3ce 8a3f 6b26 0e3f
00000060: 1e08 103e bc4f ad3e eace e3be 3b0d aabf
00000070: ec0a 5c3f 5bcf a73f 4c06 563f 0ead cc3e
0.616253 1.4510744 -1.6465008 -0.35684562 0.8360268 0.2025819 0.8737382 -0.51268494
1.1607237 1.2864807 1.2561363 1.4498906 0.18252504 -0.32505006 0.13777786 0.025377966
0.96782744 1.2540913 1.407746 0.8565612 0.48201966 0.77577233 1.0844406 0.5552737
0.14065596 0.33849895 -0.444938 -1.3285288 0.85954165 1.3110155 0.8360336 0.3997578

sequential/batch_normalization_1/batchnorm/mul:0 f4 [32]
00000000: 9f39 843f b0f2 1140 d999 0740 b6e1 a73f
00000010: 26c7 6f3f b9d9 5140 9e27 a03f 35d7 f73f
00000020: 30e0 873f ffca bf3f 320c 0240 7381 1e40
00000030: febb b93f 0b62 0340 e2d5 b73f fad9 ae3f
00000040: bb5a 843f 9e49 2b40 a4b8 d03f 7fc7 7e3f
00000050: cc7a 2a40 b09c 873f ff02 643f 4ef1 723f
00000060: 541c c33f ae2a 823f 7e8e b43f 71b4 3340
00000070: 4edb ac3f f351 ca3f bd1d 953f 803c bc3f
1.0330085 2.2804375 2.118765 1.3115757 0.9366325 3.2789137 1.251209 1.9362551
1.0615292 1.4983824 2.0319943 2.476651 1.4510496 2.052859 1.4362147 1.3660271
1.0340189 2.6763682 1.6306348 0.99523157 2.663745 1.0594692 0.8906707 0.9489945
1.524302 1.0169275 1.4105985 2.8078883 1.3504426 1.5806259 1.16497 1.4705963

sequential/batch_normalization/batchnorm/sub:0 f4 [32]
00000000: 2bea e53e 40f8 8f3b e782 de3e 9201 753e
00000010: f4b6 e73d 4cfa 673e 1089 8e3e 5aa3 123f
00000020: 9895 033e e0bc cb3d f1a6 d63e 727a f53e
00000030: 33d7 973d 2945 a2bd df3e 99be d9a9 343f
00000040: c80b 5f3e 3c92 773e 6023 2f3e 44aa 9c3e
00000050: 8402 b23e ca49 803e e097 973e 8d77 9c3e
00000060: 2eec b33e f963 973e acc9 82be 6bab b43e
00000070: 7d0e 933e 6681 febe 5f00 3c3e 2418 873e
0.44905218 0.0043936074 0.43459246 0.2392638 0.113141924 0.22654074 0.27838945 0.57280505
0.12850034 0.099481344 0.4192424 0.4794498 0.07414093 -0.079233475 -0.2993078 0.70571667
0.21781838 0.24176878 0.17103338 0.30598652 0.34767544 0.25056297 0.2960806 0.3055996
0.35141128 0.2956846 -0.25544488 0.35287032 0.2872199 -0.49708098 0.18359517 0.26385605

sequential/batch_normalization/batchnorm/mul:0 f4 [32]
00000000: c3fe 1a3f 181d 793f fda3 163f cf55 363f
00000010: 41bc 033f fe3e fa3e 2582 013f f834 383f
00000020: cd68 5c3f c227 6c3f da26 2e3f eebe 133f
00000030: 3701 6f3f 0d6f 453f d42e 563f 1e4f 363f
00000040: e675 353f 8f11 623f ebf0 2a3f 3fab 5d3f
00000050: 3561 343f 9f37 3c3f ce52 2f3f da85 343f
00000060: e154 8d3f 2071 123f fe34 b33f 28f3 6b3f
00000070: 619e 503f 2a12 643f 57b1 133f 2dea 5a3f
0.60544986 0.9731002 0.58843976 0.71224684 0.5145913 0.48876184 0.5058921 0.71955824
0.86097413 0.92248166 0.6802803 0.5771321 0.9336123 0.77122575 0.83665204 0.71214473
0.70883024 0.8830804 0.6677386 0.86589426 0.70460826 0.7352237 0.68485725 0.7051674
1.1041528 0.57203865 1.4000547 0.921679 0.8149167 0.89090216 0.57692474 0.85513574
